…
//localhost:8080/"},"id":"23qvpVZ7lkz4","executionInfo":{"status":"ok","timestamp":1684948194584,"user_tz":-300,"elapsed":27,"user":{"displayName":"ГЕОРГИЙ ТАРАСОВ","userId":"17733240599764047363"}},"outputId":"d9e3a63e-17b0-4552-ff89-66eef77757e3"},"execution_count":null,"outputs":[{"output_type":"stream","name":"stdout","text":["Model: \"sequential_1\"\n","_________________________________________________________________\n"," Layer (type)                Output Shape              Param #   \n","=================================================================\n"," conv2d_3 (Conv2D)           (None, 30, 30, 32)        896       \n","                                                                 \n"," max_pooling2d_2 (MaxPooling  (None, 15, 15, 32)       0         \n"," 2D)                                                             \n","                                                                 \n"," conv2d_4 (Conv2D)           (None, 13, 13, 64)        18496     \n","                                                                 \n"," max_pooling2d_3 (MaxPooling  (None, 6, 6, 64)         0         \n"," 2D)                                                             \n","                                                                 \n"," conv2d_5 (Conv2D)           (None, 4, 4, 128)         73856     \n","                                                                 \n"," flatten_1 (Flatten)         (None, 2048)              0         \n","                                                                 \n"," dense_2 (Dense)             (None, 128)               262272    \n","                                                                 \n"," dense_3 (Dense)             (None, 20)                2580      \n","                                                                 \n","=================================================================\n","Total params: 358,100\n","Trainable params: 358,100\n","Non-trainable params: 0\n","_________________________________________________________________\n"]}]},{"cell_type":"code","source":["model.fit(x_train, y_train, epochs =30)"],"metadata":{"colab"
…
